…
|=========================================================================================|
|  No running processes found                                                             |
+-----------------------------------------------------------------------------------------+
=== SLURM环境变量 ===
SLURM_GPUS_PER_NODE: 
CUDA_VISIBLE_DEVICES: 0
=== PyTorch检测 ===
PyTorch检测GPU数: 1
可用GPU: ['NVIDIA GeForce GTX 1080']
==> STATE: tx infer (virtual experiment)
Loaded config: checkpoints/first_run/config.yaml
Control perturbation: non-targeting
Grouping by cell type column: cell_type
StateTransitionPerturbationModel(
  (loss_fn): SamplesLoss()
  (pert_encoder): Sequential(
    (0): Linear(in_features=5120, out_features=672, bias=True)
    (1): GELU(approximate='none')
    (2): Dropout(p=0.1, inplace=False)
    (3): Linear(in_features=672, out_features=672, bias=True)
    (4): GELU(approximate='none')
    (5): Dropout(p=0.1, inplace=False)
    (6): Linear(in_features=672, out_features=672, bias=True)
    (7): GELU(approximate='none')
    (8): Dropout(p=0.1, inplace=False)
    (9): Linear(in_features=672, out_features=672, bias=True)
  )
  (basal_encoder): Linear(in_features=18080, out_features=672, bias=True)
  (transformer_backbone): LlamaModel(
    (embed_tokens): Embedding(32000, 672, padding_idx=0)
    (layers): ModuleList(
      (0-3): 4 x LlamaDecoderLayer(
        (self_attn): LlamaAttention(
          (q_proj): Linear(in_features=672, out_features=672, bias=False)
          (k_proj): Linear(in_features=672, out_features=672, bias=False)
          (v_proj): Linear(in_features=672, out_features=672, bias=False)
          (o_proj): Linear(in_features=672, out_features=672, bias=False)
        )
        (mlp): LlamaMLP(
          (gate_proj): Linear(in_features=672, out_features=2688, bias=False)
          (up_proj): Linear(in_features=672, out_features=2688, bias=False)
          (down_proj): Linear(in_features=2688, out_features=672, bias=False)
          (act_fn): SiLUActivation()
        )
        (input_layernorm): LlamaRMSNorm((672,), eps=1e-06)
        (post_attention_layernorm): LlamaRMSNorm((672,), eps=1e-06)
      )
    )
    (norm): LlamaRMSNorm((672,), eps=1e-06)
    (rotary_emb): LlamaRotaryEmbedding()
  )
  (project_out): Sequential(
    (0): Linear(in_features=672, out_features=672, bias=True)
    (1): GELU(approximate='none')
    (2): Dropout(p=0.1, inplace=False)
    (3): Linear(in_features=672, out_features=672, bias=True)
    (4): GELU(approximate='none')
    (5): Dropout(p=0.1, inplace=False)
    (6): Linear(in_features=672, out_features=672, bias=True)
    (7): GELU(approximate='none')
    (8): Dropout(p=0.1, inplace=False)
    (9): Linear(in_features=672, out_features=18080, bias=True)
  )
  (final_down_then_up): Sequential(
    (0): Linear(in_features=18080, out_features=2260, bias=True)
    (1): GELU(approximate='none')
    (2): Linear(in_features=2260, out_features=18080, bias=True)
  )
  (relu): ReLU()
)
Model device: cuda:0
Model cell_set_len (max sequence length): 128
Model uses batch encoder: False
Model output space: all
Using adata.X as input features: shape (133670, 18080)
Cells: total=133670, control=1000, non-control=132670
Running virtual experiment (homogeneous per-perturbation forward passes; controls included)...

=== Inference complete ===
…
